…
gradient_steps:
  desc: null
  value: 1
learning_rate:
  desc: null
  value: 0.0001
learning_starts:
  desc: null
  value: 50000
lr_schedule:
  desc: null
  value: <function constant_fn.<locals>.func at 0x17cb6bbe0>
max_grad_norm:
  desc: null
  value: 10
n_envs:
  desc: null
  value: 1
num_timesteps:
  desc: null
  value: 0
observation_space:
  desc: null
  value: Box(0, 255, (3, 210, 160), uint8)
optimize_memory_usage:
  desc: null
  value: 'False'
policy:
  desc: null
  value: "CnnPolicy(\n  (q_net): QNetwork(\n    (features_extractor): NatureCNN(\n\
    \      (cnn): Sequential(\n        (0): Conv2d(3, 32, kernel_size=(8, 8), stride=(4,\
    \ 4))\n        (1): ReLU()\n        (2): Conv2d(32, 64, kernel_size=(4, 4), stride=(2,\
    \ 2))\n        (3): ReLU()\n        (4): Conv2d(64, 64, kernel_size=(3, 3), stride=(1,\
    \ 1))\n        (5): ReLU()\n        (6): Flatten(start_dim=1, end_dim=-1)\n  \
    \    )\n      (linear): Sequential(\n        (0): Linear(in_features=22528, out_features=512,\
    \ bias=True)\n        (1): ReLU()\n      )\n    )\n    (q_net): Sequential(\n\
    \      (0): Linear(in_features=512, out_features=18, bias=True)\n    )\n  )\n\
    \  (q_net_target): QNetwork(\n    (features_extractor): NatureCNN(\n      (cnn):\
    \ Sequential(\n        (0): Conv2d(3, 32, kernel_size=(8, 8), stride=(4, 4))\n\
    \        (1): ReLU()\n        (2): Conv2d(32, 64, kernel_size=(4, 4), stride=(2,\
    \ 2))\n        (3): ReLU()\n        (4): Conv2d(64, 64, kernel_size=(3, 3), stride=(1,\
    \ 1))\n        (5): ReLU()\n        (6): Flatten(start_dim=1, end_dim=-1)\n  \
    \    )\n      (linear): Sequential(\n        (0): Linear(in_features=22528, out_features=512,\
    \ bias=True)\n        (1): ReLU()\n      )\n    )\n    (q_net): Sequential(\n\
    \      (0): Linear(in_features=512, out_features=18, bias=True)\n    )\n  )\n)"
policy_class:
  desc: null
  value: <class 'stable_baselines3.dqn.policies.CnnPolicy'>
policy_kwargs:
  desc: null
  value: '{}'
q_net:
  desc: null
  value: "QNetwork(\n  (features_extractor): NatureCNN(\n    (cnn): Sequential(\n\
    \      (0): Conv2d(3, 32, kernel_size=(8, 8), stride=(4, 4))\n      (1): ReLU()\n\
    \      (2): Conv2d(32, 64, kernel_size=(4, 4), stride=(2, 2))\n      (3): ReLU()\n\
    \      (4): Conv2d(64, 64, kernel_size=(3, 3), stride=(1, 1))\n      (5): ReLU()\n\
    \      (6): Flatten(start_dim=1, end_dim=-1)\n    )\n    (linear): Sequential(\n\
    \      (0): Linear(in_features=22528, out_features=512, bias=True)\n      (1):\
    \ ReLU()\n    )\n  )\n  (q_net): Sequential(\n    (0): Linear(in_features=512,\
    \ out_features=18, bias=True)\n  )\n)"
q_net_target:
  desc: null
  value: "QNetwork(\n  (features_extractor): NatureCNN(\n    (cnn): Sequential(\n\
    \      (0): Conv2d(3, 32, kernel_size=(8, 8), stride=(4, 4))\n      (1): ReLU()\n\
    \      (2): Conv2d(32, 64, kernel_size=(4, 4), stride=(2, 2))\n      (3): ReLU()\n\
    \      (4): Conv2d(64, 64, kernel_size=(3, 3), stride=(1, 1))\n      (5): ReLU()\n\
    \      (6): Flatten(start_dim=1, end_dim=-1)\n    )\n    (linear): Sequential(\n\
    \      (0): Linear(in_features=22528, out_features=512, bias=True)\n      (1):\
    \ ReLU()\n    )\n  )\n  (q_net): Sequential(\n    (0): Linear(in_features=512,\
    \ out_features=18, bias=True)\n  )\n)"
replay_buffer:
  desc: null
  value: <stable_baselines3.common.buffers.ReplayBuffer object at 0x1540ac4c0>
replay_buffer_class:
  desc: null
  value: <class 'stable_baselines3.common.buffers.ReplayBuffer'>
replay_buffer_kwargs:
  desc: null
  value: '{}'
sde_sample_freq:
  desc: null
  value: -1
seed:
  desc: null
  value: None
start_time:
…
