…
table_baselines3.common.buffers.ReplayBuffer'>", 'replay_buffer_kwargs': '{}', '_episode_storage': 'None', 'train_freq': "TrainFreq(frequency=4, unit=<TrainFrequencyUnit.STEP: 'step'>)", 'use_sde_at_warmup': 'False', 'exploration_initial_eps': 1.0, 'exploration_final_eps': 0.05, 'exploration_fraction': 0.1, 'target_update_interval': 10000, '_n_calls': 0, 'max_grad_norm': 10, 'exploration_rate': 0.0, 'lr_schedule': '<function get_schedule_fn.<locals>.<lambda> at 0x171e62660>', 'policy': 'CnnPolicy(\n  (q_net): QNetwork(\n    (features_extractor): NatureCNN(\n      (cnn): Sequential(\n        (0): Conv2d(1, 32, kernel_size=(8, 8), stride=(4, 4))\n        (1): ReLU()\n        (2): Conv2d(32, 64, kernel_size=(4, 4), stride=(2, 2))\n        (3): ReLU()\n        (4): Conv2d(64, 64, kernel_size=(3, 3), stride=(1, 1))\n        (5): ReLU()\n        (6): Flatten(start_dim=1, end_dim=-1)\n      )\n      (linear): Sequential(\n        (0): Linear(in_features=3136, out_features=512, bias=True)\n        (1): ReLU()\n      )\n    )\n    (q_net): Sequential(\n      (0): Linear(in_features=512, out_features=18, bias=True)\n    )\n  )\n  (q_net_target): QNetwork(\n    (features_extractor): NatureCNN(\n      (cnn): Sequential(\n        (0): Conv2d(1, 32, kernel_size=(8, 8), stride=(4, 4))\n        (1): ReLU()\n        (2): Conv2d(32, 64, kernel_size=(4, 4), stride=(2, 2))\n        (3): ReLU()\n        (4): Conv2d(64, 64, kernel_size=(3, 3), stride=(1, 1))\n        (5): ReLU()\n        (6): Flatten(start_dim=1, end_dim=-1)\n      )\n      (linear): Sequential(\n        (0): Linear(in_features=3136, out_features=512, bias=True)\n        (1): ReLU()\n      )\n    )\n    (q_net): Sequential(\n      (0): Linear(in_features=512, out_features=18, bias=True)\n    )\n  )\n)', 'q_net': 'QNetwork(\n  (features_extractor): NatureCNN(\n    (cnn): Sequential(\n      (0): Conv2d(1, 32, kernel_size=(8, 8), stride=(4, 4))\n      (1): ReLU()\n      (2): Conv2d(32, 64, kernel_size=(4, 4), stride=(2, 2))\n      (3): ReLU()\n      (4): Conv2d(64, 64, kernel_size=(3, 3), stride=(1, 1))\n      (5): ReLU()\n      (6): Flatten(start_dim=1, end_dim=-1)\n    )\n    (linear): Sequential(\n      (0): Linear(in_features=3136, out_features=512, bias=True)\n      (1): ReLU()\n    )\n  )\n  (q_net): Sequential(\n    (0): Linear(in_features=512, out_features=18, bias=True)\n  )\n)', 'q_net_target': 'QNetwork(\n  (features_extractor): NatureCNN(\n    (cnn): Sequential(\n      (0): Conv2d(1, 32, kernel_size=(8, 8), stride=(4, 4))\n      (1): ReLU()\n      (2): Conv2d(32, 64, kernel_size=(4, 4), stride=(2, 2))\n      (3): ReLU()\n      (4): Conv2d(64, 64, kernel_size=(3, 3), stride=(1, 1))\n      (5): ReLU()\n      (6): Flatten(start_dim=1, end_dim=-1)\n    )\n    (linear): Sequential(\n      (0): Linear(in_features=3136, out_features=512, bias=True)\n      (1): ReLU()\n    )\n  )\n  (q_net): Sequential(\n    (0): Linear(in_features=512, out_features=18, bias=True)\n  )\n)', 'batch_norm_stats': '[]', 'batch_norm_stats_target': '[]', 'exploration_schedule': '<function get_linear_fn.<locals>.func at 0x1716062a0>', '_logger': '<stable_baselines3.common.logger.Logger object at 0x171e75150>'}
2024-06-05 18:06:14,681 INFO    MainThread:42435 [sb3.py:save_model():153] Saving model checkpoint to ./models/dqn/model.zip
2024-06-05 18:06:14,741 INFO    MainThread:42435 [wandb_run.py:_finish():2103] finishing run lisa-stuch/RL_Comparison_Time/gi7vjiyy
…
