…
gamma:
  desc: null
  value: 0.99
learning_rate:
  desc: null
  value: 0.0003
lr_schedule:
  desc: null
  value: <function constant_fn.<locals>.func at 0x317bf97e0>
max_grad_norm:
  desc: null
  value: 0.5
n_envs:
  desc: null
  value: 4
n_epochs:
  desc: null
  value: 10
n_steps:
  desc: null
  value: 2048
normalize_advantage:
  desc: null
  value: 'True'
num_timesteps:
  desc: null
  value: 0
observation_space:
  desc: null
  value: Box(0, 255, (4, 84, 84), uint8)
policy:
  desc: null
  value: "ActorCriticCnnPolicy(\n  (features_extractor): NatureCNN(\n    (cnn): Sequential(\n\
    \      (0): Conv2d(4, 32, kernel_size=(8, 8), stride=(4, 4))\n      (1): ReLU()\n\
    \      (2): Conv2d(32, 64, kernel_size=(4, 4), stride=(2, 2))\n      (3): ReLU()\n\
    \      (4): Conv2d(64, 64, kernel_size=(3, 3), stride=(1, 1))\n      (5): ReLU()\n\
    \      (6): Flatten(start_dim=1, end_dim=-1)\n    )\n    (linear): Sequential(\n\
    \      (0): Linear(in_features=3136, out_features=512, bias=True)\n      (1):\
    \ ReLU()\n    )\n  )\n  (pi_features_extractor): NatureCNN(\n    (cnn): Sequential(\n\
    \      (0): Conv2d(4, 32, kernel_size=(8, 8), stride=(4, 4))\n      (1): ReLU()\n\
    \      (2): Conv2d(32, 64, kernel_size=(4, 4), stride=(2, 2))\n      (3): ReLU()\n\
    \      (4): Conv2d(64, 64, kernel_size=(3, 3), stride=(1, 1))\n      (5): ReLU()\n\
    \      (6): Flatten(start_dim=1, end_dim=-1)\n    )\n    (linear): Sequential(\n\
    \      (0): Linear(in_features=3136, out_features=512, bias=True)\n      (1):\
    \ ReLU()\n    )\n  )\n  (vf_features_extractor): NatureCNN(\n    (cnn): Sequential(\n\
    \      (0): Conv2d(4, 32, kernel_size=(8, 8), stride=(4, 4))\n      (1): ReLU()\n\
    \      (2): Conv2d(32, 64, kernel_size=(4, 4), stride=(2, 2))\n      (3): ReLU()\n\
    \      (4): Conv2d(64, 64, kernel_size=(3, 3), stride=(1, 1))\n      (5): ReLU()\n\
    \      (6): Flatten(start_dim=1, end_dim=-1)\n    )\n    (linear): Sequential(\n\
    \      (0): Linear(in_features=3136, out_features=512, bias=True)\n      (1):\
    \ ReLU()\n    )\n  )\n  (mlp_extractor): MlpExtractor(\n    (policy_net): Sequential()\n\
    \    (value_net): Sequential()\n  )\n  (action_net): Linear(in_features=512, out_features=18,\
    \ bias=True)\n  (value_net): Linear(in_features=512, out_features=1, bias=True)\n\
    )"
policy_class:
  desc: null
  value: <class 'stable_baselines3.common.policies.ActorCriticCnnPolicy'>
policy_kwargs:
  desc: null
  value: '{}'
rollout_buffer:
  desc: null
  value: <stable_baselines3.common.buffers.RolloutBuffer object at 0x312ade530>
sde_sample_freq:
  desc: null
  value: -1
seed:
  desc: null
  value: None
start_time:
  desc: null
…
