…
mmon.vec_env.vec_transpose.VecTransposeImage object at 0x312aedb40>', '_vec_normalize_env': 'None', 'observation_space': 'Box(0, 255, (4, 84, 84), uint8)', 'action_space': 'Discrete(18)', 'n_envs': 4, 'n_steps': 5, 'gamma': 0.99, 'gae_lambda': 1.0, 'ent_coef': 0.0, 'vf_coef': 0.5, 'max_grad_norm': 0.5, 'normalize_advantage': 'False', 'lr_schedule': '<function constant_fn.<locals>.func at 0x312abf490>', 'rollout_buffer': '<stable_baselines3.common.buffers.RolloutBuffer object at 0x312aed990>', 'policy': 'ActorCriticCnnPolicy(\n  (features_extractor): NatureCNN(\n    (cnn): Sequential(\n      (0): Conv2d(4, 32, kernel_size=(8, 8), stride=(4, 4))\n      (1): ReLU()\n      (2): Conv2d(32, 64, kernel_size=(4, 4), stride=(2, 2))\n      (3): ReLU()\n      (4): Conv2d(64, 64, kernel_size=(3, 3), stride=(1, 1))\n      (5): ReLU()\n      (6): Flatten(start_dim=1, end_dim=-1)\n    )\n    (linear): Sequential(\n      (0): Linear(in_features=3136, out_features=512, bias=True)\n      (1): ReLU()\n    )\n  )\n  (pi_features_extractor): NatureCNN(\n    (cnn): Sequential(\n      (0): Conv2d(4, 32, kernel_size=(8, 8), stride=(4, 4))\n      (1): ReLU()\n      (2): Conv2d(32, 64, kernel_size=(4, 4), stride=(2, 2))\n      (3): ReLU()\n      (4): Conv2d(64, 64, kernel_size=(3, 3), stride=(1, 1))\n      (5): ReLU()\n      (6): Flatten(start_dim=1, end_dim=-1)\n    )\n    (linear): Sequential(\n      (0): Linear(in_features=3136, out_features=512, bias=True)\n      (1): ReLU()\n    )\n  )\n  (vf_features_extractor): NatureCNN(\n    (cnn): Sequential(\n      (0): Conv2d(4, 32, kernel_size=(8, 8), stride=(4, 4))\n      (1): ReLU()\n      (2): Conv2d(32, 64, kernel_size=(4, 4), stride=(2, 2))\n      (3): ReLU()\n      (4): Conv2d(64, 64, kernel_size=(3, 3), stride=(1, 1))\n      (5): ReLU()\n      (6): Flatten(start_dim=1, end_dim=-1)\n    )\n    (linear): Sequential(\n      (0): Linear(in_features=3136, out_features=512, bias=True)\n      (1): ReLU()\n    )\n  )\n  (mlp_extractor): MlpExtractor(\n    (policy_net): Sequential()\n    (value_net): Sequential()\n  )\n  (action_net): Linear(in_features=512, out_features=18, bias=True)\n  (value_net): Linear(in_features=512, out_features=1, bias=True)\n)', '_logger': '<stable_baselines3.common.logger.Logger object at 0x312aecac0>'}
2024-05-16 10:05:26,213 INFO    MainThread:77846 [sb3.py:save_model():153] Saving model checkpoint to ./models/a2c/model.zip
2024-05-16 10:05:26,231 INFO    MainThread:77846 [wandb_run.py:_finish():1852] finishing run lisa-stuch/RL_Comparison/uuh0v85e
2024-05-16 10:05:26,231 INFO    MainThread:77846 [wandb_run.py:_atexit_cleanup():2081] got exitcode: 0
…
