…
use_sde_at_warmup:
  desc: null
  value: 'False'
exploration_initial_eps:
  desc: null
  value: 1.0
exploration_final_eps:
  desc: null
  value: 0.05
exploration_fraction:
  desc: null
  value: 0.1
target_update_interval:
  desc: null
  value: 10000
_n_calls:
  desc: null
  value: 0
max_grad_norm:
  desc: null
  value: 10
exploration_rate:
  desc: null
  value: 0.0
lr_schedule:
  desc: null
  value: <function get_schedule_fn.<locals>.<lambda> at 0x309b374c0>
policy:
  desc: null
  value: "CnnPolicy(\n  (q_net): QNetwork(\n    (features_extractor): NatureCNN(\n\
    \      (cnn): Sequential(\n        (0): Conv2d(1, 32, kernel_size=(8, 8), stride=(4,\
    \ 4))\n        (1): ReLU()\n        (2): Conv2d(32, 64, kernel_size=(4, 4), stride=(2,\
    \ 2))\n        (3): ReLU()\n        (4): Conv2d(64, 64, kernel_size=(3, 3), stride=(1,\
    \ 1))\n        (5): ReLU()\n        (6): Flatten(start_dim=1, end_dim=-1)\n  \
    \    )\n      (linear): Sequential(\n        (0): Linear(in_features=3136, out_features=512,\
    \ bias=True)\n        (1): ReLU()\n      )\n    )\n    (q_net): Sequential(\n\
    \      (0): Linear(in_features=512, out_features=18, bias=True)\n    )\n  )\n\
    \  (q_net_target): QNetwork(\n    (features_extractor): NatureCNN(\n      (cnn):\
    \ Sequential(\n        (0): Conv2d(1, 32, kernel_size=(8, 8), stride=(4, 4))\n\
    \        (1): ReLU()\n        (2): Conv2d(32, 64, kernel_size=(4, 4), stride=(2,\
    \ 2))\n        (3): ReLU()\n        (4): Conv2d(64, 64, kernel_size=(3, 3), stride=(1,\
    \ 1))\n        (5): ReLU()\n        (6): Flatten(start_dim=1, end_dim=-1)\n  \
    \    )\n      (linear): Sequential(\n        (0): Linear(in_features=3136, out_features=512,\
    \ bias=True)\n        (1): ReLU()\n      )\n    )\n    (q_net): Sequential(\n\
    \      (0): Linear(in_features=512, out_features=18, bias=True)\n    )\n  )\n)"
q_net:
  desc: null
  value: "QNetwork(\n  (features_extractor): NatureCNN(\n    (cnn): Sequential(\n\
    \      (0): Conv2d(1, 32, kernel_size=(8, 8), stride=(4, 4))\n      (1): ReLU()\n\
    \      (2): Conv2d(32, 64, kernel_size=(4, 4), stride=(2, 2))\n      (3): ReLU()\n\
    \      (4): Conv2d(64, 64, kernel_size=(3, 3), stride=(1, 1))\n      (5): ReLU()\n\
    \      (6): Flatten(start_dim=1, end_dim=-1)\n    )\n    (linear): Sequential(\n\
    \      (0): Linear(in_features=3136, out_features=512, bias=True)\n      (1):\
    \ ReLU()\n    )\n  )\n  (q_net): Sequential(\n    (0): Linear(in_features=512,\
    \ out_features=18, bias=True)\n  )\n)"
q_net_target:
  desc: null
  value: "QNetwork(\n  (features_extractor): NatureCNN(\n    (cnn): Sequential(\n\
    \      (0): Conv2d(1, 32, kernel_size=(8, 8), stride=(4, 4))\n      (1): ReLU()\n\
    \      (2): Conv2d(32, 64, kernel_size=(4, 4), stride=(2, 2))\n      (3): ReLU()\n\
    \      (4): Conv2d(64, 64, kernel_size=(3, 3), stride=(1, 1))\n      (5): ReLU()\n\
    \      (6): Flatten(start_dim=1, end_dim=-1)\n    )\n    (linear): Sequential(\n\
    \      (0): Linear(in_features=3136, out_features=512, bias=True)\n      (1):\
    \ ReLU()\n    )\n  )\n  (q_net): Sequential(\n    (0): Linear(in_features=512,\
    \ out_features=18, bias=True)\n  )\n)"
batch_norm_stats:
  desc: null
  value: '[]'
batch_norm_stats_target:
  desc: null
  value: '[]'
exploration_schedule:
  desc: null
  value: <function get_linear_fn.<locals>.func at 0x309b36ca0>
_logger:
  desc: null
  value: <stable_baselines3.common.logger.Logger object at 0x309fa0c10>
