…
ffer'>", 'rollout_buffer_kwargs': '{}', 'batch_size': 16, 'n_epochs': 2, 'clip_range': '<function get_schedule_fn.<locals>.<lambda> at 0x365e7f560>', 'clip_range_vf': 'None', 'normalize_advantage': 'True', 'target_kl': 'None', 'observation_space': 'Box(0, 255, (4, 84, 84), uint8)', 'action_space': 'Discrete(18)', 'n_envs': 4, 'lr_schedule': '<function get_schedule_fn.<locals>.<lambda> at 0x365ea9b20>', 'rollout_buffer': '<stable_baselines3.common.buffers.RolloutBuffer object at 0x31af13390>', 'policy': 'ActorCriticCnnPolicy(\n  (features_extractor): NatureCNN(\n    (cnn): Sequential(\n      (0): Conv2d(4, 32, kernel_size=(8, 8), stride=(4, 4))\n      (1): ReLU()\n      (2): Conv2d(32, 64, kernel_size=(4, 4), stride=(2, 2))\n      (3): ReLU()\n      (4): Conv2d(64, 64, kernel_size=(3, 3), stride=(1, 1))\n      (5): ReLU()\n      (6): Flatten(start_dim=1, end_dim=-1)\n    )\n    (linear): Sequential(\n      (0): Linear(in_features=3136, out_features=512, bias=True)\n      (1): ReLU()\n    )\n  )\n  (pi_features_extractor): NatureCNN(\n    (cnn): Sequential(\n      (0): Conv2d(4, 32, kernel_size=(8, 8), stride=(4, 4))\n      (1): ReLU()\n      (2): Conv2d(32, 64, kernel_size=(4, 4), stride=(2, 2))\n      (3): ReLU()\n      (4): Conv2d(64, 64, kernel_size=(3, 3), stride=(1, 1))\n      (5): ReLU()\n      (6): Flatten(start_dim=1, end_dim=-1)\n    )\n    (linear): Sequential(\n      (0): Linear(in_features=3136, out_features=512, bias=True)\n      (1): ReLU()\n    )\n  )\n  (vf_features_extractor): NatureCNN(\n    (cnn): Sequential(\n      (0): Conv2d(4, 32, kernel_size=(8, 8), stride=(4, 4))\n      (1): ReLU()\n      (2): Conv2d(32, 64, kernel_size=(4, 4), stride=(2, 2))\n      (3): ReLU()\n      (4): Conv2d(64, 64, kernel_size=(3, 3), stride=(1, 1))\n      (5): ReLU()\n      (6): Flatten(start_dim=1, end_dim=-1)\n    )\n    (linear): Sequential(\n      (0): Linear(in_features=3136, out_features=512, bias=True)\n      (1): ReLU()\n    )\n  )\n  (mlp_extractor): MlpExtractor(\n    (policy_net): Sequential()\n    (value_net): Sequential()\n  )\n  (action_net): Linear(in_features=512, out_features=18, bias=True)\n  (value_net): Linear(in_features=512, out_features=1, bias=True)\n)', '_logger': '<stable_baselines3.common.logger.Logger object at 0x365e92810>'}
2024-05-19 13:37:24,554 INFO    MainThread:33799 [sb3.py:save_model():153] Saving model checkpoint to ./models/ppo_continued/model.zip
2024-05-19 13:37:24,599 INFO    MainThread:33799 [wandb_run.py:_finish():2103] finishing run lisa-stuch/RL_Comparison/ndepjkyy
2024-05-19 13:37:24,599 INFO    MainThread:33799 [wandb_run.py:_atexit_cleanup():2343] got exitcode: 0
…
